…
    "        f1_hist_val.append(running_hist_f1_test)\n",
    "\n",
    "        \n",
    "\n",
    "        \n",
    "    # instantiate model and load best weights\n",
    "    model = NeuralNet(**model_kwargs)\n",
    "    model.load_state_dict(torch.load(\"./models/checkpoint.pt\"))\n",
    "    model.eval()\n",
    "\n",
    "    return model, loss_hist_train, loss_hist_val, acc_hist_train, acc_hist_val, f1_hist_train, f1_hist_val"
   ]
  },
  {
   "cell_type": "code",
   "execution_count": 20,
   "metadata": {},
   "outputs": [
    {
     "name": "stdout",
     "output_type": "stream",
     "text": [
      "NeuralNet(\n",
      "  (layer1): Linear(in_features=76796, out_features=2048, bias=True)\n",
      "  (bn1): BatchNorm1d(2048, eps=1e-05, momentum=0.1, affine=True, track_running_stats=True)\n",
      "  (layer2): Linear(in_features=2048, out_features=1024, bias=True)\n",
      "  (bn2): BatchNorm1d(1024, eps=1e-05, momentum=0.1, affine=True, track_running_stats=True)\n",
      "  (layer3): Linear(in_features=1024, out_features=512, bias=True)\n",
      "  (bn3): BatchNorm1d(512, eps=1e-05, momentum=0.1, affine=True, track_running_stats=True)\n",
      "  (layer4): Linear(in_features=512, out_features=256, bias=True)\n",
      "  (bn4): BatchNorm1d(256, eps=1e-05, momentum=0.1, affine=True, track_running_stats=True)\n",
      "  (layer5): Linear(in_features=256, out_features=128, bias=True)\n",
      "  (bn5): BatchNorm1d(128, eps=1e-05, momentum=0.1, affine=True, track_running_stats=True)\n",
      "  (layer6): Linear(in_features=128, out_features=6, bias=True)\n",
      "  (drop): Dropout(p=0.7, inplace=False)\n",
      ")\n"
     ]
    },
    {
     "name": "stderr",
     "output_type": "stream",
     "text": [
      "100%|| 1875/1875 [02:09<00:00, 14.49it/s]\n",
      "100%|| 750/750 [00:05<00:00, 129.97it/s]\n"
     ]
    },
    {
     "name": "stdout",
     "output_type": "stream",
     "text": [
      "Predicted Test: [4 5 4 2 1 1 5 5 1 5 1 5 5 2 5 1]\n",
…
